{
  "format": "layers-model",
  "generatedBy": "keras v2.5.0",
  "convertedBy": "TensorFlow.js Converter v3.13.0",
  "modelTopology": {
    "keras_version": "2.5.0",
    "backend": "tensorflow",
    "model_config": {
      "class_name": "Model",
      "config": {
        "name": "VAE",
        "layers": [
          {
            "class_name": "InputLayer",
            "config": {
              "batch_input_shape": [
                null,
                512,
                64,
                1
              ],
              "dtype": "float32",
              "sparse": false,
              "ragged": false,
              "name": "encoder_input"
            },
            "name": "encoder_input",
            "inbound_nodes": [],
            "shared_object_id": 0
          },
          {
            "class_name": "Model",
            "config": {
              "name": "encoder",
              "layers": [
                {
                  "class_name": "InputLayer",
                  "config": {
                    "batch_input_shape": [
                      null,
                      512,
                      64,
                      1
                    ],
                    "dtype": "float32",
                    "sparse": false,
                    "ragged": false,
                    "name": "encoder_input"
                  },
                  "name": "encoder_input",
                  "inbound_nodes": [],
                  "shared_object_id": 0
                },
                {
                  "class_name": "Conv2D",
                  "config": {
                    "name": "encoder_conv_layer_1",
                    "trainable": true,
                    "dtype": "float32",
                    "filters": 512,
                    "kernel_size": [
                      16,
                      16
                    ],
                    "strides": [
                      2,
                      2
                    ],
                    "padding": "same",
                    "data_format": "channels_last",
                    "dilation_rate": [
                      1,
                      1
                    ],
                    "groups": 1,
                    "activation": "linear",
                    "use_bias": true,
                    "kernel_initializer": {
                      "class_name": "GlorotUniform",
                      "config": {
                        "seed": null
                      }
                    },
                    "bias_initializer": {
                      "class_name": "Zeros",
                      "config": {}
                    },
                    "kernel_regularizer": {
                      "class_name": "L1L2",
                      "config": {
                        "L1L2": 0.10000000149011612
                      }
                    },
                    "bias_regularizer": null,
                    "activity_regularizer": null,
                    "kernel_constraint": null,
                    "bias_constraint": null
                  },
                  "name": "encoder_conv_layer_1",
                  "inbound_nodes": [
                    [
                      [
                        "encoder_input",
                        0,
                        0,
                        {}
                      ]
                    ]
                  ]
                },
                {
                  "class_name": "LeakyReLU",
                  "config": {
                    "name": "encoder_relu_1",
                    "trainable": true,
                    "dtype": "float32",
                    "alpha": 0.20000000298023224
                  },
                  "name": "encoder_relu_1",
                  "inbound_nodes": [
                    [
                      [
                        "encoder_conv_layer_1",
                        0,
                        0,
                        {}
                      ]
                    ]
                  ]
                },
                {
                  "class_name": "BatchNormalization",
                  "config": {
                    "name": "encoder_bn_1",
                    "trainable": true,
                    "dtype": "float32",
                    "axis": [
                      3
                    ],
                    "momentum": 0.99,
                    "epsilon": 0.001,
                    "center": true,
                    "scale": true,
                    "beta_initializer": {
                      "class_name": "Zeros",
                      "config": {}
                    },
                    "gamma_initializer": {
                      "class_name": "Ones",
                      "config": {}
                    },
                    "moving_mean_initializer": {
                      "class_name": "Zeros",
                      "config": {}
                    },
                    "moving_variance_initializer": {
                      "class_name": "Ones",
                      "config": {}
                    },
                    "beta_regularizer": null,
                    "gamma_regularizer": null,
                    "beta_constraint": null,
                    "gamma_constraint": null
                  },
                  "name": "encoder_bn_1",
                  "inbound_nodes": [
                    [
                      [
                        "encoder_relu_1",
                        0,
                        0,
                        {}
                      ]
                    ]
                  ]
                },
                {
                  "class_name": "Conv2D",
                  "config": {
                    "name": "encoder_conv_layer_2",
                    "trainable": true,
                    "dtype": "float32",
                    "filters": 256,
                    "kernel_size": [
                      8,
                      8
                    ],
                    "strides": [
                      2,
                      2
                    ],
                    "padding": "same",
                    "data_format": "channels_last",
                    "dilation_rate": [
                      1,
                      1
                    ],
                    "groups": 1,
                    "activation": "linear",
                    "use_bias": true,
                    "kernel_initializer": {
                      "class_name": "GlorotUniform",
                      "config": {
                        "seed": null
                      }
                    },
                    "bias_initializer": {
                      "class_name": "Zeros",
                      "config": {}
                    },
                    "kernel_regularizer": {
                      "class_name": "L1L2",
                      "config": {
                        "L1L2": 0.10000000149011612
                      }
                    },
                    "bias_regularizer": null,
                    "activity_regularizer": null,
                    "kernel_constraint": null,
                    "bias_constraint": null
                  },
                  "name": "encoder_conv_layer_2",
                  "inbound_nodes": [
                    [
                      [
                        "encoder_bn_1",
                        0,
                        0,
                        {}
                      ]
                    ]
                  ]
                },
                {
                  "class_name": "LeakyReLU",
                  "config": {
                    "name": "encoder_relu_2",
                    "trainable": true,
                    "dtype": "float32",
                    "alpha": 0.20000000298023224
                  },
                  "name": "encoder_relu_2",
                  "inbound_nodes": [
                    [
                      [
                        "encoder_conv_layer_2",
                        0,
                        0,
                        {}
                      ]
                    ]
                  ]
                },
                {
                  "class_name": "BatchNormalization",
                  "config": {
                    "name": "encoder_bn_2",
                    "trainable": true,
                    "dtype": "float32",
                    "axis": [
                      3
                    ],
                    "momentum": 0.99,
                    "epsilon": 0.001,
                    "center": true,
                    "scale": true,
                    "beta_initializer": {
                      "class_name": "Zeros",
                      "config": {}
                    },
                    "gamma_initializer": {
                      "class_name": "Ones",
                      "config": {}
                    },
                    "moving_mean_initializer": {
                      "class_name": "Zeros",
                      "config": {}
                    },
                    "moving_variance_initializer": {
                      "class_name": "Ones",
                      "config": {}
                    },
                    "beta_regularizer": null,
                    "gamma_regularizer": null,
                    "beta_constraint": null,
                    "gamma_constraint": null
                  },
                  "name": "encoder_bn_2",
                  "inbound_nodes": [
                    [
                      [
                        "encoder_relu_2",
                        0,
                        0,
                        {}
                      ]
                    ]
                  ]
                },
                {
                  "class_name": "Conv2D",
                  "config": {
                    "name": "encoder_conv_layer_3",
                    "trainable": true,
                    "dtype": "float32",
                    "filters": 128,
                    "kernel_size": [
                      3,
                      3
                    ],
                    "strides": [
                      2,
                      2
                    ],
                    "padding": "same",
                    "data_format": "channels_last",
                    "dilation_rate": [
                      1,
                      1
                    ],
                    "groups": 1,
                    "activation": "linear",
                    "use_bias": true,
                    "kernel_initializer": {
                      "class_name": "GlorotUniform",
                      "config": {
                        "seed": null
                      }
                    },
                    "bias_initializer": {
                      "class_name": "Zeros",
                      "config": {}
                    },
                    "kernel_regularizer": {
                      "class_name": "L1L2",
                      "config": {
                        "L1L2": 0.10000000149011612
                      }
                    },
                    "bias_regularizer": null,
                    "activity_regularizer": null,
                    "kernel_constraint": null,
                    "bias_constraint": null
                  },
                  "name": "encoder_conv_layer_3",
                  "inbound_nodes": [
                    [
                      [
                        "encoder_bn_2",
                        0,
                        0,
                        {}
                      ]
                    ]
                  ]
                },
                {
                  "class_name": "LeakyReLU",
                  "config": {
                    "name": "encoder_relu_3",
                    "trainable": true,
                    "dtype": "float32",
                    "alpha": 0.20000000298023224
                  },
                  "name": "encoder_relu_3",
                  "inbound_nodes": [
                    [
                      [
                        "encoder_conv_layer_3",
                        0,
                        0,
                        {}
                      ]
                    ]
                  ]
                },
                {
                  "class_name": "BatchNormalization",
                  "config": {
                    "name": "encoder_bn_3",
                    "trainable": true,
                    "dtype": "float32",
                    "axis": [
                      3
                    ],
                    "momentum": 0.99,
                    "epsilon": 0.001,
                    "center": true,
                    "scale": true,
                    "beta_initializer": {
                      "class_name": "Zeros",
                      "config": {}
                    },
                    "gamma_initializer": {
                      "class_name": "Ones",
                      "config": {}
                    },
                    "moving_mean_initializer": {
                      "class_name": "Zeros",
                      "config": {}
                    },
                    "moving_variance_initializer": {
                      "class_name": "Ones",
                      "config": {}
                    },
                    "beta_regularizer": null,
                    "gamma_regularizer": null,
                    "beta_constraint": null,
                    "gamma_constraint": null
                  },
                  "name": "encoder_bn_3",
                  "inbound_nodes": [
                    [
                      [
                        "encoder_relu_3",
                        0,
                        0,
                        {}
                      ]
                    ]
                  ]
                },
                {
                  "class_name": "Conv2D",
                  "config": {
                    "name": "encoder_conv_layer_4",
                    "trainable": true,
                    "dtype": "float32",
                    "filters": 64,
                    "kernel_size": [
                      3,
                      3
                    ],
                    "strides": [
                      2,
                      2
                    ],
                    "padding": "same",
                    "data_format": "channels_last",
                    "dilation_rate": [
                      1,
                      1
                    ],
                    "groups": 1,
                    "activation": "linear",
                    "use_bias": true,
                    "kernel_initializer": {
                      "class_name": "GlorotUniform",
                      "config": {
                        "seed": null
                      }
                    },
                    "bias_initializer": {
                      "class_name": "Zeros",
                      "config": {}
                    },
                    "kernel_regularizer": {
                      "class_name": "L1L2",
                      "config": {
                        "L1L2": 0.10000000149011612
                      }
                    },
                    "bias_regularizer": null,
                    "activity_regularizer": null,
                    "kernel_constraint": null,
                    "bias_constraint": null
                  },
                  "name": "encoder_conv_layer_4",
                  "inbound_nodes": [
                    [
                      [
                        "encoder_bn_3",
                        0,
                        0,
                        {}
                      ]
                    ]
                  ]
                },
                {
                  "class_name": "LeakyReLU",
                  "config": {
                    "name": "encoder_relu_4",
                    "trainable": true,
                    "dtype": "float32",
                    "alpha": 0.20000000298023224
                  },
                  "name": "encoder_relu_4",
                  "inbound_nodes": [
                    [
                      [
                        "encoder_conv_layer_4",
                        0,
                        0,
                        {}
                      ]
                    ]
                  ]
                },
                {
                  "class_name": "BatchNormalization",
                  "config": {
                    "name": "encoder_bn_4",
                    "trainable": true,
                    "dtype": "float32",
                    "axis": [
                      3
                    ],
                    "momentum": 0.99,
                    "epsilon": 0.001,
                    "center": true,
                    "scale": true,
                    "beta_initializer": {
                      "class_name": "Zeros",
                      "config": {}
                    },
                    "gamma_initializer": {
                      "class_name": "Ones",
                      "config": {}
                    },
                    "moving_mean_initializer": {
                      "class_name": "Zeros",
                      "config": {}
                    },
                    "moving_variance_initializer": {
                      "class_name": "Ones",
                      "config": {}
                    },
                    "beta_regularizer": null,
                    "gamma_regularizer": null,
                    "beta_constraint": null,
                    "gamma_constraint": null
                  },
                  "name": "encoder_bn_4",
                  "inbound_nodes": [
                    [
                      [
                        "encoder_relu_4",
                        0,
                        0,
                        {}
                      ]
                    ]
                  ]
                },
                {
                  "class_name": "Conv2D",
                  "config": {
                    "name": "encoder_conv_layer_5",
                    "trainable": true,
                    "dtype": "float32",
                    "filters": 32,
                    "kernel_size": [
                      2,
                      2
                    ],
                    "strides": [
                      1,
                      1
                    ],
                    "padding": "same",
                    "data_format": "channels_last",
                    "dilation_rate": [
                      1,
                      1
                    ],
                    "groups": 1,
                    "activation": "linear",
                    "use_bias": true,
                    "kernel_initializer": {
                      "class_name": "GlorotUniform",
                      "config": {
                        "seed": null
                      }
                    },
                    "bias_initializer": {
                      "class_name": "Zeros",
                      "config": {}
                    },
                    "kernel_regularizer": {
                      "class_name": "L1L2",
                      "config": {
                        "L1L2": 0.10000000149011612
                      }
                    },
                    "bias_regularizer": null,
                    "activity_regularizer": null,
                    "kernel_constraint": null,
                    "bias_constraint": null
                  },
                  "name": "encoder_conv_layer_5",
                  "inbound_nodes": [
                    [
                      [
                        "encoder_bn_4",
                        0,
                        0,
                        {}
                      ]
                    ]
                  ]
                },
                {
                  "class_name": "LeakyReLU",
                  "config": {
                    "name": "encoder_relu_5",
                    "trainable": true,
                    "dtype": "float32",
                    "alpha": 0.20000000298023224
                  },
                  "name": "encoder_relu_5",
                  "inbound_nodes": [
                    [
                      [
                        "encoder_conv_layer_5",
                        0,
                        0,
                        {}
                      ]
                    ]
                  ]
                },
                {
                  "class_name": "BatchNormalization",
                  "config": {
                    "name": "encoder_bn_5",
                    "trainable": true,
                    "dtype": "float32",
                    "axis": [
                      3
                    ],
                    "momentum": 0.99,
                    "epsilon": 0.001,
                    "center": true,
                    "scale": true,
                    "beta_initializer": {
                      "class_name": "Zeros",
                      "config": {}
                    },
                    "gamma_initializer": {
                      "class_name": "Ones",
                      "config": {}
                    },
                    "moving_mean_initializer": {
                      "class_name": "Zeros",
                      "config": {}
                    },
                    "moving_variance_initializer": {
                      "class_name": "Ones",
                      "config": {}
                    },
                    "beta_regularizer": null,
                    "gamma_regularizer": null,
                    "beta_constraint": null,
                    "gamma_constraint": null
                  },
                  "name": "encoder_bn_5",
                  "inbound_nodes": [
                    [
                      [
                        "encoder_relu_5",
                        0,
                        0,
                        {}
                      ]
                    ]
                  ]
                },
                {
                  "class_name": "Flatten",
                  "config": {
                    "name": "flatten",
                    "trainable": true,
                    "dtype": "float32",
                    "data_format": "channels_last"
                  },
                  "name": "flatten",
                  "inbound_nodes": [
                    [
                      [
                        "encoder_bn_5",
                        0,
                        0,
                        {}
                      ]
                    ]
                  ]
                },
                {
                  "class_name": "Dense",
                  "config": {
                    "name": "mu",
                    "trainable": true,
                    "dtype": "float32",
                    "units": 500,
                    "activation": "linear",
                    "use_bias": true,
                    "kernel_initializer": {
                      "class_name": "GlorotUniform",
                      "config": {
                        "seed": null
                      }
                    },
                    "bias_initializer": {
                      "class_name": "Zeros",
                      "config": {}
                    },
                    "kernel_regularizer": null,
                    "bias_regularizer": null,
                    "activity_regularizer": null,
                    "kernel_constraint": null,
                    "bias_constraint": null
                  },
                  "name": "mu",
                  "inbound_nodes": [
                    [
                      [
                        "flatten",
                        0,
                        0,
                        {}
                      ]
                    ]
                  ]
                },
                {
                  "class_name": "Dense",
                  "config": {
                    "name": "log_variance",
                    "trainable": true,
                    "dtype": "float32",
                    "units": 500,
                    "activation": "linear",
                    "use_bias": true,
                    "kernel_initializer": {
                      "class_name": "GlorotUniform",
                      "config": {
                        "seed": null
                      }
                    },
                    "bias_initializer": {
                      "class_name": "Zeros",
                      "config": {}
                    },
                    "kernel_regularizer": null,
                    "bias_regularizer": null,
                    "activity_regularizer": null,
                    "kernel_constraint": null,
                    "bias_constraint": null
                  },
                  "name": "log_variance",
                  "inbound_nodes": [
                    [
                      [
                        "flatten",
                        0,
                        0,
                        {}
                      ]
                    ]
                  ]
                },
                {
                  "class_name": "GaussianDistribution",
                  "config": {
                    "name": "gaussian_distribution",
                    "trainable": true,
                    "dtype": "float32",
                    "latent_space_dim": 500
                  },
                  "name": "gaussian_distribution",
                  "inbound_nodes": [
                    [
                      [
                        "mu",
                        0,
                        0,
                        {}
                      ],
                      [
                        "log_variance",
                        0,
                        0,
                        {}
                      ]
                    ]
                  ]
                }
              ],
              "input_layers": [
                [
                  "encoder_input",
                  0,
                  0
                ]
              ],
              "output_layers": [
                [
                  "gaussian_distribution",
                  0,
                  0
                ]
              ]
            },
            "name": "encoder",
            "inbound_nodes": [
              [
                [
                  "encoder_input",
                  0,
                  0,
                  {}
                ]
              ]
            ]
          },
          {
            "class_name": "Model",
            "config": {
              "name": "decoder",
              "layers": [
                {
                  "class_name": "InputLayer",
                  "config": {
                    "batch_input_shape": [
                      null,
                      500
                    ],
                    "dtype": "float32",
                    "sparse": false,
                    "ragged": false,
                    "name": "decoder_input"
                  },
                  "name": "decoder_input",
                  "inbound_nodes": []
                },
                {
                  "class_name": "Dense",
                  "config": {
                    "name": "decoder_dense",
                    "trainable": true,
                    "dtype": "float32",
                    "units": 4096,
                    "activation": "linear",
                    "use_bias": true,
                    "kernel_initializer": {
                      "class_name": "GlorotUniform",
                      "config": {
                        "seed": null
                      }
                    },
                    "bias_initializer": {
                      "class_name": "Zeros",
                      "config": {}
                    },
                    "kernel_regularizer": null,
                    "bias_regularizer": null,
                    "activity_regularizer": null,
                    "kernel_constraint": null,
                    "bias_constraint": null
                  },
                  "name": "decoder_dense",
                  "inbound_nodes": [
                    [
                      [
                        "decoder_input",
                        0,
                        0,
                        {}
                      ]
                    ]
                  ]
                },
                {
                  "class_name": "Reshape",
                  "config": {
                    "name": "reshape",
                    "trainable": true,
                    "dtype": "float32",
                    "target_shape": [
                      32,
                      4,
                      32
                    ]
                  },
                  "name": "reshape",
                  "inbound_nodes": [
                    [
                      [
                        "decoder_dense",
                        0,
                        0,
                        {}
                      ]
                    ]
                  ]
                },
                {
                  "class_name": "Conv2DTranspose",
                  "config": {
                    "name": "decoder_conv_transpose_layer_1",
                    "trainable": true,
                    "dtype": "float32",
                    "filters": 32,
                    "kernel_size": [
                      2,
                      2
                    ],
                    "strides": [
                      1,
                      1
                    ],
                    "padding": "same",
                    "data_format": "channels_last",
                    "dilation_rate": [
                      1,
                      1
                    ],
                    "groups": 1,
                    "activation": "linear",
                    "use_bias": true,
                    "kernel_initializer": {
                      "class_name": "GlorotUniform",
                      "config": {
                        "seed": null
                      }
                    },
                    "bias_initializer": {
                      "class_name": "Zeros",
                      "config": {}
                    },
                    "kernel_regularizer": {
                      "class_name": "L1L2",
                      "config": {
                        "L1L2": 0.10000000149011612
                      }
                    },
                    "bias_regularizer": null,
                    "activity_regularizer": null,
                    "kernel_constraint": null,
                    "bias_constraint": null,
                    "output_padding": null
                  },
                  "name": "decoder_conv_transpose_layer_1",
                  "inbound_nodes": [
                    [
                      [
                        "reshape",
                        0,
                        0,
                        {}
                      ]
                    ]
                  ]
                },
                {
                  "class_name": "LeakyReLU",
                  "config": {
                    "name": "decoder_relu_1",
                    "trainable": true,
                    "dtype": "float32",
                    "alpha": 0.20000000298023224
                  },
                  "name": "decoder_relu_1",
                  "inbound_nodes": [
                    [
                      [
                        "decoder_conv_transpose_layer_1",
                        0,
                        0,
                        {}
                      ]
                    ]
                  ]
                },
                {
                  "class_name": "BatchNormalization",
                  "config": {
                    "name": "decoder_bn_1",
                    "trainable": true,
                    "dtype": "float32",
                    "axis": [
                      3
                    ],
                    "momentum": 0.99,
                    "epsilon": 0.001,
                    "center": true,
                    "scale": true,
                    "beta_initializer": {
                      "class_name": "Zeros",
                      "config": {}
                    },
                    "gamma_initializer": {
                      "class_name": "Ones",
                      "config": {}
                    },
                    "moving_mean_initializer": {
                      "class_name": "Zeros",
                      "config": {}
                    },
                    "moving_variance_initializer": {
                      "class_name": "Ones",
                      "config": {}
                    },
                    "beta_regularizer": null,
                    "gamma_regularizer": null,
                    "beta_constraint": null,
                    "gamma_constraint": null
                  },
                  "name": "decoder_bn_1",
                  "inbound_nodes": [
                    [
                      [
                        "decoder_relu_1",
                        0,
                        0,
                        {}
                      ]
                    ]
                  ]
                },
                {
                  "class_name": "Conv2DTranspose",
                  "config": {
                    "name": "decoder_conv_transpose_layer_2",
                    "trainable": true,
                    "dtype": "float32",
                    "filters": 64,
                    "kernel_size": [
                      3,
                      3
                    ],
                    "strides": [
                      2,
                      2
                    ],
                    "padding": "same",
                    "data_format": "channels_last",
                    "dilation_rate": [
                      1,
                      1
                    ],
                    "groups": 1,
                    "activation": "linear",
                    "use_bias": true,
                    "kernel_initializer": {
                      "class_name": "GlorotUniform",
                      "config": {
                        "seed": null
                      }
                    },
                    "bias_initializer": {
                      "class_name": "Zeros",
                      "config": {}
                    },
                    "kernel_regularizer": {
                      "class_name": "L1L2",
                      "config": {
                        "L1L2": 0.10000000149011612
                      }
                    },
                    "bias_regularizer": null,
                    "activity_regularizer": null,
                    "kernel_constraint": null,
                    "bias_constraint": null,
                    "output_padding": null
                  },
                  "name": "decoder_conv_transpose_layer_2",
                  "inbound_nodes": [
                    [
                      [
                        "decoder_bn_1",
                        0,
                        0,
                        {}
                      ]
                    ]
                  ]
                },
                {
                  "class_name": "LeakyReLU",
                  "config": {
                    "name": "decoder_relu_2",
                    "trainable": true,
                    "dtype": "float32",
                    "alpha": 0.20000000298023224
                  },
                  "name": "decoder_relu_2",
                  "inbound_nodes": [
                    [
                      [
                        "decoder_conv_transpose_layer_2",
                        0,
                        0,
                        {}
                      ]
                    ]
                  ]
                },
                {
                  "class_name": "BatchNormalization",
                  "config": {
                    "name": "decoder_bn_2",
                    "trainable": true,
                    "dtype": "float32",
                    "axis": [
                      3
                    ],
                    "momentum": 0.99,
                    "epsilon": 0.001,
                    "center": true,
                    "scale": true,
                    "beta_initializer": {
                      "class_name": "Zeros",
                      "config": {}
                    },
                    "gamma_initializer": {
                      "class_name": "Ones",
                      "config": {}
                    },
                    "moving_mean_initializer": {
                      "class_name": "Zeros",
                      "config": {}
                    },
                    "moving_variance_initializer": {
                      "class_name": "Ones",
                      "config": {}
                    },
                    "beta_regularizer": null,
                    "gamma_regularizer": null,
                    "beta_constraint": null,
                    "gamma_constraint": null
                  },
                  "name": "decoder_bn_2",
                  "inbound_nodes": [
                    [
                      [
                        "decoder_relu_2",
                        0,
                        0,
                        {}
                      ]
                    ]
                  ]
                },
                {
                  "class_name": "Conv2DTranspose",
                  "config": {
                    "name": "decoder_conv_transpose_layer_3",
                    "trainable": true,
                    "dtype": "float32",
                    "filters": 128,
                    "kernel_size": [
                      3,
                      3
                    ],
                    "strides": [
                      2,
                      2
                    ],
                    "padding": "same",
                    "data_format": "channels_last",
                    "dilation_rate": [
                      1,
                      1
                    ],
                    "groups": 1,
                    "activation": "linear",
                    "use_bias": true,
                    "kernel_initializer": {
                      "class_name": "GlorotUniform",
                      "config": {
                        "seed": null
                      }
                    },
                    "bias_initializer": {
                      "class_name": "Zeros",
                      "config": {}
                    },
                    "kernel_regularizer": {
                      "class_name": "L1L2",
                      "config": {
                        "L1L2": 0.10000000149011612
                      }
                    },
                    "bias_regularizer": null,
                    "activity_regularizer": null,
                    "kernel_constraint": null,
                    "bias_constraint": null,
                    "output_padding": null
                  },
                  "name": "decoder_conv_transpose_layer_3",
                  "inbound_nodes": [
                    [
                      [
                        "decoder_bn_2",
                        0,
                        0,
                        {}
                      ]
                    ]
                  ]
                },
                {
                  "class_name": "LeakyReLU",
                  "config": {
                    "name": "decoder_relu_3",
                    "trainable": true,
                    "dtype": "float32",
                    "alpha": 0.20000000298023224
                  },
                  "name": "decoder_relu_3",
                  "inbound_nodes": [
                    [
                      [
                        "decoder_conv_transpose_layer_3",
                        0,
                        0,
                        {}
                      ]
                    ]
                  ]
                },
                {
                  "class_name": "BatchNormalization",
                  "config": {
                    "name": "decoder_bn_3",
                    "trainable": true,
                    "dtype": "float32",
                    "axis": [
                      3
                    ],
                    "momentum": 0.99,
                    "epsilon": 0.001,
                    "center": true,
                    "scale": true,
                    "beta_initializer": {
                      "class_name": "Zeros",
                      "config": {}
                    },
                    "gamma_initializer": {
                      "class_name": "Ones",
                      "config": {}
                    },
                    "moving_mean_initializer": {
                      "class_name": "Zeros",
                      "config": {}
                    },
                    "moving_variance_initializer": {
                      "class_name": "Ones",
                      "config": {}
                    },
                    "beta_regularizer": null,
                    "gamma_regularizer": null,
                    "beta_constraint": null,
                    "gamma_constraint": null
                  },
                  "name": "decoder_bn_3",
                  "inbound_nodes": [
                    [
                      [
                        "decoder_relu_3",
                        0,
                        0,
                        {}
                      ]
                    ]
                  ]
                },
                {
                  "class_name": "Conv2DTranspose",
                  "config": {
                    "name": "decoder_conv_transpose_layer_4",
                    "trainable": true,
                    "dtype": "float32",
                    "filters": 256,
                    "kernel_size": [
                      8,
                      8
                    ],
                    "strides": [
                      2,
                      2
                    ],
                    "padding": "same",
                    "data_format": "channels_last",
                    "dilation_rate": [
                      1,
                      1
                    ],
                    "groups": 1,
                    "activation": "linear",
                    "use_bias": true,
                    "kernel_initializer": {
                      "class_name": "GlorotUniform",
                      "config": {
                        "seed": null
                      }
                    },
                    "bias_initializer": {
                      "class_name": "Zeros",
                      "config": {}
                    },
                    "kernel_regularizer": {
                      "class_name": "L1L2",
                      "config": {
                        "L1L2": 0.10000000149011612
                      }
                    },
                    "bias_regularizer": null,
                    "activity_regularizer": null,
                    "kernel_constraint": null,
                    "bias_constraint": null,
                    "output_padding": null
                  },
                  "name": "decoder_conv_transpose_layer_4",
                  "inbound_nodes": [
                    [
                      [
                        "decoder_bn_3",
                        0,
                        0,
                        {}
                      ]
                    ]
                  ]
                },
                {
                  "class_name": "LeakyReLU",
                  "config": {
                    "name": "decoder_relu_4",
                    "trainable": true,
                    "dtype": "float32",
                    "alpha": 0.20000000298023224
                  },
                  "name": "decoder_relu_4",
                  "inbound_nodes": [
                    [
                      [
                        "decoder_conv_transpose_layer_4",
                        0,
                        0,
                        {}
                      ]
                    ]
                  ]
                },
                {
                  "class_name": "BatchNormalization",
                  "config": {
                    "name": "decoder_bn_4",
                    "trainable": true,
                    "dtype": "float32",
                    "axis": [
                      3
                    ],
                    "momentum": 0.99,
                    "epsilon": 0.001,
                    "center": true,
                    "scale": true,
                    "beta_initializer": {
                      "class_name": "Zeros",
                      "config": {}
                    },
                    "gamma_initializer": {
                      "class_name": "Ones",
                      "config": {}
                    },
                    "moving_mean_initializer": {
                      "class_name": "Zeros",
                      "config": {}
                    },
                    "moving_variance_initializer": {
                      "class_name": "Ones",
                      "config": {}
                    },
                    "beta_regularizer": null,
                    "gamma_regularizer": null,
                    "beta_constraint": null,
                    "gamma_constraint": null
                  },
                  "name": "decoder_bn_4",
                  "inbound_nodes": [
                    [
                      [
                        "decoder_relu_4",
                        0,
                        0,
                        {}
                      ]
                    ]
                  ]
                },
                {
                  "class_name": "Conv2DTranspose",
                  "config": {
                    "name": "decoder_conv_transpose_layer_5",
                    "trainable": true,
                    "dtype": "float32",
                    "filters": 1,
                    "kernel_size": [
                      16,
                      16
                    ],
                    "strides": [
                      2,
                      2
                    ],
                    "padding": "same",
                    "data_format": "channels_last",
                    "dilation_rate": [
                      1,
                      1
                    ],
                    "groups": 1,
                    "activation": "linear",
                    "use_bias": true,
                    "kernel_initializer": {
                      "class_name": "GlorotUniform",
                      "config": {
                        "seed": null
                      }
                    },
                    "bias_initializer": {
                      "class_name": "Zeros",
                      "config": {}
                    },
                    "kernel_regularizer": null,
                    "bias_regularizer": null,
                    "activity_regularizer": null,
                    "kernel_constraint": null,
                    "bias_constraint": null,
                    "output_padding": null
                  },
                  "name": "decoder_conv_transpose_layer_5",
                  "inbound_nodes": [
                    [
                      [
                        "decoder_bn_4",
                        0,
                        0,
                        {}
                      ]
                    ]
                  ]
                },
                {
                  "class_name": "Activation",
                  "config": {
                    "name": "output_layer",
                    "trainable": true,
                    "dtype": "float32",
                    "activation": "sigmoid"
                  },
                  "name": "output_layer",
                  "inbound_nodes": [
                    [
                      [
                        "decoder_conv_transpose_layer_5",
                        0,
                        0,
                        {}
                      ]
                    ]
                  ]
                }
              ],
              "input_layers": [
                [
                  "decoder_input",
                  0,
                  0
                ]
              ],
              "output_layers": [
                [
                  "output_layer",
                  0,
                  0
                ]
              ]
            },
            "name": "decoder",
            "inbound_nodes": [
              [
                [
                  "encoder",
                  1,
                  0,
                  {}
                ]
              ]
            ]
          }
        ],
        "input_layers": [
          [
            "encoder_input",
            0,
            0
          ]
        ],
        "output_layers": [
          [
            "decoder",
            1,
            0
          ]
        ]
      }
    },
    "training_config": {
      "loss": "_calculate_combined_loss",
      "metrics": [],
      "loss_weights": null,
      "sample_weight_mode": null,
      "weighted_metrics": null,
      "optimizer_config": {
        "class_name": "Adam",
        "config": {
          "name": "Adam",
          "learning_rate": 9.999999747378752e-05,
          "decay": 0.0,
          "beta_1": 0.8999999761581421,
          "beta_2": 0.9990000128746033,
          "epsilon": 1e-07,
          "amsgrad": false
        }
      }
    }
  },
  "weightsManifest": [
    {
      "paths": [
        "group1-shard1of17.bin",
        "group1-shard2of17.bin",
        "group1-shard3of17.bin",
        "group1-shard4of17.bin",
        "group1-shard5of17.bin",
        "group1-shard6of17.bin",
        "group1-shard7of17.bin",
        "group1-shard8of17.bin",
        "group1-shard9of17.bin",
        "group1-shard10of17.bin",
        "group1-shard11of17.bin",
        "group1-shard12of17.bin",
        "group1-shard13of17.bin",
        "group1-shard14of17.bin",
        "group1-shard15of17.bin",
        "group1-shard16of17.bin",
        "group1-shard17of17.bin"
      ],
      "weights": [
        {
          "name": "decoder_dense/kernel",
          "shape": [
            500,
            4096
          ],
          "dtype": "float32"
        },
        {
          "name": "decoder_dense/bias",
          "shape": [
            4096
          ],
          "dtype": "float32"
        },
        {
          "name": "decoder_conv_transpose_layer_1/kernel",
          "shape": [
            2,
            2,
            32,
            32
          ],
          "dtype": "float32"
        },
        {
          "name": "decoder_conv_transpose_layer_1/bias",
          "shape": [
            32
          ],
          "dtype": "float32"
        },
        {
          "name": "decoder_bn_1/gamma",
          "shape": [
            32
          ],
          "dtype": "float32"
        },
        {
          "name": "decoder_bn_1/beta",
          "shape": [
            32
          ],
          "dtype": "float32"
        },
        {
          "name": "decoder_conv_transpose_layer_2/kernel",
          "shape": [
            3,
            3,
            64,
            32
          ],
          "dtype": "float32"
        },
        {
          "name": "decoder_conv_transpose_layer_2/bias",
          "shape": [
            64
          ],
          "dtype": "float32"
        },
        {
          "name": "decoder_bn_2/gamma",
          "shape": [
            64
          ],
          "dtype": "float32"
        },
        {
          "name": "decoder_bn_2/beta",
          "shape": [
            64
          ],
          "dtype": "float32"
        },
        {
          "name": "decoder_conv_transpose_layer_3/kernel",
          "shape": [
            3,
            3,
            128,
            64
          ],
          "dtype": "float32"
        },
        {
          "name": "decoder_conv_transpose_layer_3/bias",
          "shape": [
            128
          ],
          "dtype": "float32"
        },
        {
          "name": "decoder_bn_3/gamma",
          "shape": [
            128
          ],
          "dtype": "float32"
        },
        {
          "name": "decoder_bn_3/beta",
          "shape": [
            128
          ],
          "dtype": "float32"
        },
        {
          "name": "decoder_conv_transpose_layer_4/kernel",
          "shape": [
            8,
            8,
            256,
            128
          ],
          "dtype": "float32"
        },
        {
          "name": "decoder_conv_transpose_layer_4/bias",
          "shape": [
            256
          ],
          "dtype": "float32"
        },
        {
          "name": "decoder_bn_4/gamma",
          "shape": [
            256
          ],
          "dtype": "float32"
        },
        {
          "name": "decoder_bn_4/beta",
          "shape": [
            256
          ],
          "dtype": "float32"
        },
        {
          "name": "decoder_conv_transpose_layer_5/kernel",
          "shape": [
            16,
            16,
            1,
            256
          ],
          "dtype": "float32"
        },
        {
          "name": "decoder_conv_transpose_layer_5/bias",
          "shape": [
            1
          ],
          "dtype": "float32"
        },
        {
          "name": "decoder_bn_1/moving_mean",
          "shape": [
            32
          ],
          "dtype": "float32"
        },
        {
          "name": "decoder_bn_1/moving_variance",
          "shape": [
            32
          ],
          "dtype": "float32"
        },
        {
          "name": "decoder_bn_2/moving_mean",
          "shape": [
            64
          ],
          "dtype": "float32"
        },
        {
          "name": "decoder_bn_2/moving_variance",
          "shape": [
            64
          ],
          "dtype": "float32"
        },
        {
          "name": "decoder_bn_3/moving_mean",
          "shape": [
            128
          ],
          "dtype": "float32"
        },
        {
          "name": "decoder_bn_3/moving_variance",
          "shape": [
            128
          ],
          "dtype": "float32"
        },
        {
          "name": "decoder_bn_4/moving_mean",
          "shape": [
            256
          ],
          "dtype": "float32"
        },
        {
          "name": "decoder_bn_4/moving_variance",
          "shape": [
            256
          ],
          "dtype": "float32"
        },
        {
          "name": "encoder_conv_layer_1/kernel",
          "shape": [
            16,
            16,
            1,
            512
          ],
          "dtype": "float32"
        },
        {
          "name": "encoder_conv_layer_1/bias",
          "shape": [
            512
          ],
          "dtype": "float32"
        },
        {
          "name": "encoder_bn_1/gamma",
          "shape": [
            512
          ],
          "dtype": "float32"
        },
        {
          "name": "encoder_bn_1/beta",
          "shape": [
            512
          ],
          "dtype": "float32"
        },
        {
          "name": "encoder_conv_layer_2/kernel",
          "shape": [
            8,
            8,
            512,
            256
          ],
          "dtype": "float32"
        },
        {
          "name": "encoder_conv_layer_2/bias",
          "shape": [
            256
          ],
          "dtype": "float32"
        },
        {
          "name": "encoder_bn_2/gamma",
          "shape": [
            256
          ],
          "dtype": "float32"
        },
        {
          "name": "encoder_bn_2/beta",
          "shape": [
            256
          ],
          "dtype": "float32"
        },
        {
          "name": "encoder_conv_layer_3/kernel",
          "shape": [
            3,
            3,
            256,
            128
          ],
          "dtype": "float32"
        },
        {
          "name": "encoder_conv_layer_3/bias",
          "shape": [
            128
          ],
          "dtype": "float32"
        },
        {
          "name": "encoder_bn_3/gamma",
          "shape": [
            128
          ],
          "dtype": "float32"
        },
        {
          "name": "encoder_bn_3/beta",
          "shape": [
            128
          ],
          "dtype": "float32"
        },
        {
          "name": "encoder_conv_layer_4/kernel",
          "shape": [
            3,
            3,
            128,
            64
          ],
          "dtype": "float32"
        },
        {
          "name": "encoder_conv_layer_4/bias",
          "shape": [
            64
          ],
          "dtype": "float32"
        },
        {
          "name": "encoder_bn_4/gamma",
          "shape": [
            64
          ],
          "dtype": "float32"
        },
        {
          "name": "encoder_bn_4/beta",
          "shape": [
            64
          ],
          "dtype": "float32"
        },
        {
          "name": "encoder_conv_layer_5/kernel",
          "shape": [
            2,
            2,
            64,
            32
          ],
          "dtype": "float32"
        },
        {
          "name": "encoder_conv_layer_5/bias",
          "shape": [
            32
          ],
          "dtype": "float32"
        },
        {
          "name": "encoder_bn_5/gamma",
          "shape": [
            32
          ],
          "dtype": "float32"
        },
        {
          "name": "encoder_bn_5/beta",
          "shape": [
            32
          ],
          "dtype": "float32"
        },
        {
          "name": "mu/kernel",
          "shape": [
            4096,
            500
          ],
          "dtype": "float32"
        },
        {
          "name": "mu/bias",
          "shape": [
            500
          ],
          "dtype": "float32"
        },
        {
          "name": "log_variance/kernel",
          "shape": [
            4096,
            500
          ],
          "dtype": "float32"
        },
        {
          "name": "log_variance/bias",
          "shape": [
            500
          ],
          "dtype": "float32"
        },
        {
          "name": "encoder_bn_1/moving_mean",
          "shape": [
            512
          ],
          "dtype": "float32"
        },
        {
          "name": "encoder_bn_1/moving_variance",
          "shape": [
            512
          ],
          "dtype": "float32"
        },
        {
          "name": "encoder_bn_2/moving_mean",
          "shape": [
            256
          ],
          "dtype": "float32"
        },
        {
          "name": "encoder_bn_2/moving_variance",
          "shape": [
            256
          ],
          "dtype": "float32"
        },
        {
          "name": "encoder_bn_3/moving_mean",
          "shape": [
            128
          ],
          "dtype": "float32"
        },
        {
          "name": "encoder_bn_3/moving_variance",
          "shape": [
            128
          ],
          "dtype": "float32"
        },
        {
          "name": "encoder_bn_4/moving_mean",
          "shape": [
            64
          ],
          "dtype": "float32"
        },
        {
          "name": "encoder_bn_4/moving_variance",
          "shape": [
            64
          ],
          "dtype": "float32"
        },
        {
          "name": "encoder_bn_5/moving_mean",
          "shape": [
            32
          ],
          "dtype": "float32"
        },
        {
          "name": "encoder_bn_5/moving_variance",
          "shape": [
            32
          ],
          "dtype": "float32"
        }
      ]
    }
  ]
}